models/2025-06-19_20-43-26_nn/final_lcls_fel_model.pt (torch, 941654 bytes, 13 tensors)

weight f4 [512, 115]
00000000: ef79 573d d669 d13d 7006 983c 9ba9 19bd
00000010: d108 b93c a1f7 e23c ba68 fb3c 33ac 92bc
00000020: 9fab 9abd dd14 93bc df26 b8bd 3b4b 87bc
00000030: cf88 72bc 8a63 94bd 97dc bc3d 9059 a33d
00000040: 7eb9 6fbd 3e13 42bd 4afb 563d 493a 983c
00000050: cfe5 523d 2c5e 72bd 0722 edba 5395 a63d
00000060: 219f 493c f96c 753b 7fd4 be3d 826a e6bc
00000070: 811b c7bd 83fa 1fbd 85e4 6e3d 1012 2e3d
00000080: 8326 ca3d 3647 6abc de22 873d 7649 573d
00000090: b0c8 bfb9 d64e 95bd 8592 263d 3f82 8dbd
000000a0: 1235 813d 9aae 78bd 00b1 933d 6276 313d
000000b0: e19d 933d 16d3 b4bd 4fc7 3d3d b157 063d
000000c0: 070f a6bc 3e53 4dbd 23db 98bc e40b c4bd
000000d0: b352 c4bd 1643 443d a79a b5bd 6cfa 483c
000000e0: 203a e83d 5f75 083d 2bca 043d f720 943d
000000f0: fec5 f13b 2d66 193d cffe 813c a8c4 97bc
00000100: c153 8ebd 78db 51bd c126 733c 736d 41bd
00000110: 4879 5dbd 82c5 483c 57c8 42bd b859 353d
00000120: 5ea4 ae3d f9f1 52bd d3cd 713c 239c 4b3c
00000130: 3577 6abd 2ab7 f2bc a262 7abd 17ee 4a3d
00000140: 9dde 3fbc c13a 91bd a43b 5dbd e68b 2d3d
00000150: a797 0d3d 7d5f adbd 3f2c afbc 39de aabd
00000160: 08a6 a6bc d47d b5bd 6509 6a3d e95b 993d
00000170: ebd5 683d 8aa0 d53c 286c 2fbd 9a44 853d
00000180: 1745 9ebd 8623 7d3d b649 7bbd dc0f c43d
00000190: 9371 50bd 2ff1 453c b6ee 0cbc 51da 59bd
000001a0: f43d c73d cfd1 20bd e4c0 b43d e2e4 cf3b
000001b0: eab1 73bb 5bba ecbb c050 cc3d 4d0b d4bd
000001c0: c4e7 b33d 18e1 6dbd 76da 543d a91a b2bd
000001d0: d111 093d cf66 cd3c 0832 b1bc df41 353d
000001e0: 6d0e f93b b761 6fbd b881 bbbc 9e42 8abc
000001f0: df97 66bd ae0e f53b e822 8abd e8e9 1e3d
00000200: 38f9 3dbd 4672 973d 8447 d53c cf25 d13d
00000210: 43b2 3ebc d87a ffbc bfbe c23c 634a 393d
00000220: 9d25 94bd 3047 133c 0f67 7ebd 3be2 653b
00000230: d0a3 2fbd 07b6 5cbd b833 673d c502 a13d
00000240: e4e5 46bd 435f 95bc aa05 da3b 0b3b 8d3c
00000250: f015 92bc 3256 70bd 9485 78bd feb5 b53d
00000260: c6cb a8bb b8b6 19bd f9b2 c63d b6f5 09bd
00000270: f6d4 81bd 5415 673d 24a5 12bd 8e1b 83bc
00000280: 8a26 7a3d 1524 5a3d 997a f7bc 8fb0 c43c
00000290: 3ccc 873d 415d d43d 01e4 003d 27ee 8b3d
000002a0: d1f2 29bd d148 bb3d 8ae8 99bd 9c60 0cbd
000002b0: 71d5 a43c d815 ad3d 6ae4 403d f9b4 19bc
000002c0: 0dbb b9bd 21e7 903c 6033 013c 5b94 aabc
000002d0: e4cf 723c 0ad2 8d3d 0187 783c 7687 afbc
000002e0: 0bcb acbc da87 983d 2ea4 b1bb 6acc a13d
000002f0: f815 1fbd 90b7 a6bd 8044 903d 7fb4 b73c
00000300: e9d1 713c d505 723c ec67 93bd 05be a43d
00000310: 2d4c 15bd 9fd5 8e3d 3040 3c3d e25b 07bb
00000320: 407e 243d 66c1 a8bc 0aae c1bc e94d a9bc
00000330: 8548 b9bc 3c2a 523c d88b dfbc d1db 9c3d
00000340: aa3a 993d fd41 91bd c530 f8bc e67f 7e3c
00000350: 7121 9e3c 8d4f 6d3d c79d d13c 75db 3dbd
00000360: ddf1 ee3b 628e 57bc cd9a 9abd 459b 1cbc
00000370: 95e4 09bd 3535 18bd 1d62 b63c 4ed9 b43c
00000380: 0598 88bd 3650 963d 5116 5bbd 0662 1e3d
00000390: 6f6a 46bb b272 cdbd c05b cbbd 0db2 25bd
000003a0: c558 13bd 68d2 47bd 6f9b b23d 45cc 0cbd
000003b0: c6f8 da3c 5696 c6ba ddb9 71bd 12a9 843c
000003c0: e22e 7fbd a459 77bd 6943 883d 8827 ac3d
000003d0: 2a75 3b3d 1ee9 bebd d285 aebd 7a19 0bbd
000003e0: 0b5c 0b3d edd3 70bd 240f 1abd 4334 3b3d
000003f0: e0b7 dfbc 5a6d 4abd 7350 493c 24c5 97bd
0.05260652 0.10225265 0.018557757 -0.037515264 0.022587212 0.02770597 0.030689586 -0.017904377
-0.075522654 -0.017954284 -0.08991789 -0.016515365 -0.0148031255 -0.07245548 0.09221762 0.07976067
-0.05852651 -0.047381632 0.05248574 0.01858248 0.051488694 -0.05917184 -0.0018091806 0.0813395
0.012306006 0.0037448986 0.09317874 -0.028126959 -0.09722043 -0.039057266 0.058323402 0.042497694
0.09870627 -0.014299205 0.06598447 0.052560292 -0.00036579883 -0.072904274 0.040667076 -0.06909608
0.063089505 -0.060713388 0.072114944 0.04332579 0.072078474 -0.08829324 0.046332654 0.032798473
-0.020270837 -0.050128214 -0.01865918 -0.095725805 -0.09586086 0.04791554 -0.08867388 0.0122667365
0.113392115 0.03331506 0.032419365 0.0723285 0.007378339 0.037450958 0.015868573 -0.01852639
-0.069495685 -0.051234692 0.014840783 -0.04722352 -0.05407074 0.012254121 -0.04755434 0.044275016
0.08527444 -0.051500294 0.014758545 0.012427363 -0.05724259 -0.029628355 -0.06112922 0.049543466
-0.01171079 -0.070912845 -0.054011956 0.042369746 0.034568455 -0.084654786 -0.021383403 -0.08343167
-0.020342842 -0.088618904 0.057137866 0.074882336 0.056844633 0.026077528 -0.042827755 0.06507225
-0.077280216 0.061801456 -0.061349593 0.095733374 -0.050889563 0.012081428 -0.008601835 -0.05318672
0.097286135 -0.03926259 0.088258535 0.0063444236 -0.0037184902 -0.0072243637 0.09976339 -0.10353718
0.0878444 -0.058075994 0.051966153 -0.08696491 0.033464257 0.025073437 -0.021630302 0.044252273
0.0076005966 -0.058442798 -0.022889003 -0.016877469 -0.05629718 0.0074785566 -0.06744939 0.03879729
-0.04638025 0.07394843 0.026035078 0.102122895 -0.011639181 -0.031186506 0.023772595 0.045236956
-0.07233737 0.00898914 -0.062110003 0.003507747 -0.042880833 -0.053884532 0.056445807 0.07861856
-0.048559085 -0.0182339 0.0066535072 0.017240068 -0.017832726 -0.058675952 -0.060674265 0.08872603
-0.005151245 -0.03752777 0.09702105 -0.033681594 -0.06339447 0.056416824 -0.03580202 -0.01600435
0.06107191 0.053257067 -0.030209826 0.024009971 0.066307515 0.10369349 0.03146744 0.06832533
-0.041491333 0.09144748 -0.075150564 -0.03427182 0.020121308 0.08451432 0.047092833 -0.009381526
-0.0906888 0.017688336 0.007885784 -0.020822695 0.014820073 0.069248274 0.015168906 -0.021426897
-0.021092912 0.07447787 -0.005421183 0.07900317 -0.03883931 -0.081404805 0.07044315 0.022424934
0.014759519 0.014771898 -0.07197556 0.08044056 -0.0364496 0.06974339 0.04595965 -0.0020654132
0.040159464 -0.020600032 -0.023642559 -0.020667033 -0.022617588 0.012827452 -0.027288362 0.07659114
0.074818924 -0.070926644 -0.030296693 0.015533423 0.019303055 0.057937194 0.02558793 -0.04635187
0.007292016 -0.013156505 -0.07549057 -0.0095585035 -0.03366526 -0.037160117 0.022263581 0.022076275
-0.066696204 0.07339518 -0.05348808 0.0386677 -0.0030275842 -0.10031642 -0.09929609 -0.040453006
-0.03597333 -0.048784643 0.08721053 -0.034374494 0.026729953 -0.0015151005 -0.059015144 0.0161939
-0.06230057 -0.060388222 0.066534825 0.084059775 0.045766033 -0.09321807 -0.08521618 -0.033959843
0.034023326 -0.05879586 -0.037612095 0.045704138 -0.027309358 -0.049420692 0.012287247 -0.074106485

bias f4 [512]
00000000: 117a b13d 01fa 3cbd b078 30bc eb29 a3bd
00000010: be61 9ebd f519 bcbd eb61 003d 5ddb 07bd
00000020: 46ed 203c cbe7 a43d c70c ebbb ef9a 91bd
00000030: 2d32 343d 14a2 793d ab38 c1bb c5cf e43c
00000040: de89 683d 22d2 5dbc 61d1 553d 5837 d7bc
00000050: 06fc 69bc b49e eebb 78a3 e5bc 503d 2b3d
00000060: 3177 3c3d f9ab 6bbd 839c 1ebc b7d2 8c3d
00000070: 1313 853d a2ab 91bd 3770 dcbc d2f0 9a3c
00000080: 593e ae3d b6cd 4d3d bc73 653c 3faf 5abd
00000090: c749 753d 744e 9dbd f137 54bd 7bce 71bc
000000a0: ea88 a7bd 883f 95bd 05a8 63bc dff8 b43d
000000b0: dd7f 16bc 98e7 03bd a740 043c df95 8bbc
000000c0: 7627 80bc 963c b13d d069 6f3d 23ab 993d
000000d0: 47df 583d b65d 963d 636a 683d 58ed 2a3c
000000e0: fc33 92bd 728f 99bd 35ba 4fbd 97f6 813d
000000f0: c7f1 2bbd ac4e b13c 1e65 64bd 1ef4 b23d
00000100: d4fa 2cbd e803 48bd 9169 2bbc 7c27 ebbc
00000110: 7fe9 b13c 272c c0bd a524 c13c 5fb7 c03c
00000120: cd5a 523b 8844 553d 3b94 29bd 592c 8cbd
00000130: d5e5 a9bc 30fa 9e3d 1faa 24bd 5917 10bc
00000140: bbf5 553d 9ac8 da3c f18b 2e3c 2dad 87bd
00000150: 877a 66bc 9b7d 47bd ecad 97bd 91e9 75bd
00000160: ce32 e93c 3dfe 19bd a701 bd3c 0f56 cdbc
00000170: 039e 8dbd 1797 5a3d fbad 99bd 9346 653d
00000180: d1fe 6dbc 3b84 bd3c 29ba ab3d b76f c0bb
00000190: 39a7 b33d fd9a f53b bf27 8abc 4271 99bd
000001a0: 2e0c 983c 23fb 003a 9951 1b3c 8465 8d3d
000001b0: b4a0 f33c 32b5 ac3d e867 2e3d 865b fa3c
000001c0: 84a7 843c 619f 8d3b 01c8 85bd 59e8 3f3d
000001d0: f23a 98bd d73b 933d 5d23 283c 7109 9cbd
000001e0: 1d56 0bbd 99bc ab3d 2d92 3bbd 8bc7 de3c
000001f0: cd16 533d 8a8f 7fbd c824 91bd eb40 a2bc
00000200: 9872 1fbd 5267 f2bc 7a2d 823c 1e97 20bd
00000210: 65b4 5e3b 7df5 b6bd 1b5c da3a b18f 0d3d
00000220: a2f1 03bd 9ac0 b1bb b1dd 78bc 0a2d b9bc
00000230: 29ae b1bd d52e 5b3d 464e 3ebb dd1a 2abd
00000240: 1566 703d dc56 943d 8662 5abd a63e 843c
00000250: 15a1 4d3d 014c 2f3d 087d 8abd 402d d9bc
00000260: bb6a 803d 79d0 6dbd 6da5 713d e596 7f3d
00000270: bce5 2d3c 649d 6c3d 41b8 2d3c 51a2 07bd
00000280: cb73 13bd 963c 793d b54f 5ebc d548 393d
00000290: 2075 703c 5966 893b 250b 45bd 3d7c 7e3b
000002a0: b454 853d a6c7 9f3d 3caa 823c 9485 3e3b
000002b0: 7132 763d d7b7 a4bb b216 6e3d 2453 91bd
000002c0: 835e 72bb dcb3 ba3b 242f 653d d79c 80bd
000002d0: 9991 793d a2ca 903d 1997 a53d 5377 64bd
000002e0: 9424 16bd 38dc 35bc 759e f0bc 5ab8 a53d
000002f0: 2b15 163d a0a4 79bd ffbc 0dbd ba98 8fbd
00000300: 17cb e63b f6cf aa3d a6e8 86bc 37b8 a1bd
00000310: 884b 4ebc 2275 b93c 2772 9ebd c4c9 83bd
00000320: 115b 92bd eea8 743d 8204 843d 0089 833c
00000330: 10db e2bc c57b fabb e42d 463d 244a 9b3d
00000340: 2811 773c 0324 843c 2caf 32bd 244c 1d3d
00000350: 2f6a 8cbb ed0c 933d 95cb 363d 8388 863d
00000360: 6d6e 423d bfde a63d 8b76 783d 10a5 6f3d
00000370: bf85 8e3d 7e46 ebbc 7953 69bc f808 4a3d
00000380: 5ba1 62bd 7e67 3e3d 5368 a8bd 88f7 a9bd
00000390: 2d43 393d 48c9 373d 11e5 82bb 3e7b f4bc
000003a0: 507b 6e3d 0ab6 4ebd 29ee 81bd b406 5c3b
000003b0: 1cd8 143d d73b a83d 0d38 de3c 0650 8b3c
000003c0: 4264 4dbd 6e31 5b3c 9321 c1bc 98e5 44bc
000003d0: 001c 4cbb f2b9 bc3d cd58 a83d 200f 69bd
000003e0: 4a27 e9bb 3dfd 91bd b2f9 bcbc d39e 863c
000003f0: 804c fc3c 82a8 5ebd 4d81 8d3d 9659 14bd
0.086658604 -0.04613686 -0.010770962 -0.079669796 -0.077334866 -0.091846384 0.03134338 -0.033168186
0.009822195 0.080520235 -0.007173154 -0.07109629 0.043993164 0.060945585 -0.005896648 0.027931103
0.056772105 -0.013538869 0.052201632 -0.026271507 -0.0142812785 -0.0072821025 -0.02803205 0.04180652
0.046012107 -0.057537053 -0.00968087 0.06876128 0.06497779 -0.071128145 -0.026908977 0.01891366
0.085079856 0.05024501 0.014004644 -0.053389784 0.059884813 -0.07680979 -0.051811162 -0.014758701
-0.08180411 -0.07287508 -0.013895039 0.08836531 -0.009185758 -0.032203287 0.008072055 -0.017039238
-0.015643816 0.08654134 0.05845052 0.07503345 0.05294731 0.07342093 0.056742083 0.010432564
-0.071388215 -0.07498063 -0.05071469 0.063458614 -0.041978624 0.021643959 -0.055760495 0.08737968
-0.042231396 -0.04883185 -0.010462181 -0.028705351 0.021717785 -0.093834214 0.023577044 0.023524938
0.0032097579 0.05206731 -0.04140113 -0.06844396 -0.020739475 0.07762563 -0.040201303 -0.008794629
0.0522363 0.026706982 0.010653482 -0.066248275 -0.014067299 -0.04870377 -0.0740622 -0.0600372
0.028466608 -0.037595976 0.023072077 -0.02506545 -0.06914904 0.053366747 -0.07503887 0.055975508
-0.014526085 0.023134341 0.083851166 -0.0058726924 0.087721296 0.0074952827 -0.016864656 -0.07492305
0.018560495 0.0004920235 0.009479904 0.06904128 0.029739715 0.08432998 0.04257956 0.03056122
0.016193159 0.004321978 -0.06532288 0.046852443 -0.07433118 0.07189148 0.0102623375 -0.07618988
-0.03401767 0.083855815 -0.0457937 0.027194759 0.051535416 -0.06239275 -0.070870936 -0.019806346
-0.038927644 -0.029590283 0.015890826 -0.039206617 0.0033982035 -0.08933542 0.001665953 0.034560863
-0.03221286 -0.005424571 -0.015189574 -0.022604484 -0.086757965 0.05351146 -0.0029038354 -0.041529525
0.058691103 0.072431296 -0.053316616 0.016143154 0.050202448 0.042797092 -0.06762129 -0.026510835
0.06270357 -0.058060143 0.058995653 0.062399764 0.010613855 0.057767287 0.010603012 -0.03311378
-0.0359991 0.060848795 -0.013568808 0.045235474 0.014676362 0.004193109 -0.04810633 0.0038831376
0.065102965 0.07801752 0.015950315 0.0029071318 0.0601067 -0.005026798 0.058127113 -0.07095936
-0.0036982603 0.0056977104 0.05595316 -0.06279915 0.06092987 0.07069899 0.0808546 -0.05577786
-0.036655977 -0.0110998675 -0.029372433 0.08091803 0.03664128 -0.060948014 -0.03460407 -0.07011552
0.007043253 0.08340447 -0.016468357 -0.07896464 -0.01259125 0.022638861 -0.077366166 -0.06434968
-0.07146276 0.059731416 0.06446172 0.016056538 -0.027692348 -0.007644149 0.04838361 0.075825006
0.015079774 0.016130453 -0.04362409 0.03840269 -0.004285119 0.071802 0.044627745 0.06569006
0.04746859 0.08147954 0.060659926 0.058507025 0.06959104 -0.028720137 -0.014241093 0.04932496
-0.05532966 0.046485417 -0.08223023 -0.08299166 0.04523008 0.04486969 -0.003994592 -0.029843923
0.05822307 -0.050466575 -0.063442536 0.0033573331 0.03633891 0.082145385 0.027126336 0.017005932
-0.05014444 0.013378484 -0.02357558 -0.01201763 -0.003114462 0.09215154 0.082200624 -0.05689919
-0.0071152793 -0.071283795 -0.023068283 0.016433155 0.030798197 -0.05435992 0.06909428 -0.03621825

weight f4 [256, 512]
00000000: 6da5 6c3c b7de 04bd 2642 36bc 32ea 283c
00000010: e170 a23b 1d5f 2ebc 516e ea3c 4bce 7bbc
00000020: df30 203d 1c92 e23b 3352 a03b 551d 17bd
00000030: 22a4 ac3d abb1 883c d475 d43c 7bd1 f43c
00000040: 422f 2d3c 7333 103d aae5 ca3c 9ce2 623c
00000050: 0680 34bd 018e 12bd b7f3 073c fb82 bbbc
00000060: 75d2 cebc f5e0 70ba 8a2b 16bc 35d6 e63c
00000070: f890 1ebc d29d 013d f0bf b83b 5ad3 6ebb
00000080: 152d 103d 1c19 2fbc 8611 7dbb d1a1 e1bc
00000090: 779e d33c b426 af3c 08f8 9f3c 911b 533d
000000a0: 8bac 283c 59bb 5d3c 3d45 60bb fad9 823c
000000b0: 63f1 ab3c 2b20 4fbc 369e 62bd d9c5 1bbd
000000c0: e10d 243d 5146 64bc 37ad 4bbb f9ad 50bd
000000d0: 48be babc f88d 03bd c234 e13b 45cd d43c
000000e0: 3224 483c e908 853b 7b25 243c 3acf 333c
000000f0: 9b3e c0bc 281c fcbb d847 39bd 1ae1 8cbc
00000100: c80d 50bd 2bf3 9fbc 4215 523b b9e2 39bc
00000110: 5fd9 9dbb 8619 1d3d 1989 d73c c24e 15bd
00000120: c909 22bd ef6c 7ebc 0e75 753c 5fc7 8cbc
00000130: fc44 cb3c 985a 30bd 418f 1d3c ba4b 53bd
00000140: 445b 44bd 487c bebc e017 993c 96d1 2d3c
00000150: b709 30bc fb81 8dbd c63e 903a bab2 323d
00000160: 7f64 74bb d741 143b 6f59 85bc ded1 f23a
00000170: b319 123c 7b82 f83c f521 a93c 7f43 e7bc
00000180: 11ae e1bc 65f7 debb 1adc 5f3c 2ddc 3fbd
00000190: 9d0b 023d 2b9d b73c 60c5 673c b7cb 6fbd
000001a0: cfe7 b63c 975e 1ebd 16af a73b 7f83 a13c
000001b0: e46f 02bc 9a6c cf3c eee9 d83b 5b2a 8d3c
000001c0: 08c5 b13c f1d6 f1bc 820f babc f868 803c
000001d0: 19ba 9ebc 29b3 f9bc 2ea6 ab3c aaf1 d6bc
000001e0: 0f5d 983b ae84 0b3d 6eaa 763c c1fb c63c
000001f0: dcb4 5abb a38e 1bbd 8eb9 c6bc 8887 983a
00000200: c6c7 43bc 0f94 8c3d 4544 56bb 8391 0f3d
00000210: d38e 0a3d 245f 38bd 51d1 30bc 434e 4c3b
00000220: 5f12 323d 8d4b f4bc 57c5 753d 0fb9 233c
00000230: d422 cf3c a7fd 573c ca37 37bd b133 f53b
00000240: 6d8c 923c 0404 e83b 1064 ea3c bf43 e23c
00000250: feda 27bd d014 e83c 0b6d acbc a7e8 f53a
00000260: f984 1d3d c0ae 87bc 0a4e 983c 89ea 25bd
00000270: b119 aaba 0266 e1bc 3c37 92bc 29b2 dd3b
00000280: f22e 21bd 2215 c1bc 408a 95bc f688 d3ba
00000290: c53e b5bc 7337 373c 1fb5 adbc 4cd0 acbc
000002a0: 03d1 7fbb 2852 e43c cb12 413d 04ef 393b
000002b0: aa01 9f39 55f2 5cbc 230d 1ebb 841f ca3c
000002c0: c847 bbbc 8fb7 a33c 5e81 2abc ce16 9f3c
000002d0: 2172 093d 7ef5 ccbc a987 013d 896a 01bd
000002e0: ea5c 283d 60ad 843c 64f5 803d b391 f8bb
000002f0: 8596 5f3c f7ad a4bc 4636 e13c 9584 973a
00000300: 0aa7 04bd 7e7b 523c 1c0b 5dbb ee3b 34bb
00000310: e53c 143b 8762 f53c 29ae 253d 21e9 dcbc
00000320: 5567 b83d 7b82 0ebc 21bc ec3c 9300 083d
00000330: c7a5 cbbc 5ee2 11bd 2418 d63c 1683 563d
00000340: c395 f03c a271 d73c 603b 303c af62 563c
00000350: 5834 0e3d 36fa 743b ceb4 9abb d483 d5bc
00000360: 9a45 2fbd d820 bfbc 185e cfbb 836e a73b
00000370: 856e 80bc 9466 3fbd ee19 af3a 612b 9ebc
00000380: 3423 84bc 3ec4 9fbc ab32 793c f1bb 173d
00000390: f80a 953a 7bca 05bd f889 c3bc 261e bcbb
000003a0: 1812 2c3c 0cd7 163c 72c2 41bc 476c 1f3c
000003b0: 842b 71bc 1641 8a3c e5b1 d33c d469 5bbc
000003c0: 7620 0c3b cac7 993c 3c53 0c3d 9972 81bb
000003d0: 4835 1abc b8b3 8dbc 23cd 85bc ba9c 593d
000003e0: 3a52 c13c 455f f4bc c459 763c 3fc9 7c3a
000003f0: 2fdc b23c 711d 153d bbf1 bd3c 6bf7 34bd
0.014443737 -0.03243896 -0.011124169 0.010309743 0.004957304 -0.010642794 0.028617056 -0.015369008
0.039109107 0.0069143903 0.0048926114 -0.036893208 0.08429743 0.016686281 0.025935091 0.029885044
0.010570349 0.035205316 0.024767715 0.013847973 -0.044067405 -0.035779957 0.008297852 -0.022889605
-0.025246838 -0.00091887946 -0.009165654 0.028178314 -0.009678118 0.03164465 0.005638115 -0.0036441893
0.035199244 -0.010687139 -0.003861518 -0.02754298 0.025832398 0.02138076 0.01952745 0.05153996
0.010295044 0.013533437 -0.0034220957 0.01597308 0.020989126 -0.012641947 -0.055326663 -0.03803048
0.0400523 -0.01393278 -0.0031078586 -0.050947163 -0.022795811 -0.032117814 0.0068727443 0.025976786
0.012215661 0.0040599 0.010018702 0.0109747 -0.023467353 -0.007693786 -0.04523453 -0.01719718
-0.050794393 -0.019525131 0.0032056128 -0.011345559 -0.0048171724 0.03835442 0.02631049 -0.036452062
-0.039560113 -0.0155289015 0.014981521 -0.017184911 0.024813168 -0.043055147 0.009616674 -0.05158589
-0.0479386 -0.023252621 0.018688142 0.010609051 -0.010744504 -0.069095574 0.0011005036 0.04362748
-0.0037291346 0.0022622251 -0.016277997 0.001852568 0.00891726 0.030335655 0.020646075 -0.028230427
-0.027548822 -0.006804394 0.013663316 -0.046840835 0.031749357 0.02241381 0.014146179 -0.058543887
0.022327332 -0.038664427 0.0051173074 0.019716023 -0.007961247 0.02532034 0.0066196835 0.01723211
0.021700397 -0.029521437 -0.022712473 0.015675053 -0.019375848 -0.030480938 0.020953264 -0.026238281
0.0046497653 0.03406208 0.015055282 0.024289967 -0.003337196 -0.037977826 -0.024258401 0.0011637071
-0.011949485 0.068641774 -0.00326945 0.03505088 0.033827614 -0.04501261 -0.010792092 0.0031174577
0.04347455 -0.029821182 0.06000265 0.009992852 0.025285162 0.013183034 -0.04473094 0.0074829687
0.017889226 0.007080557 0.028612167 0.027620194 -0.04098033 0.028330237 -0.02104809 0.0018761352
0.03845689 -0.01656282 0.0185919 -0.040506873 -0.0012977627 -0.027514461 -0.017848603 0.006765623
-0.03935141 -0.023569647 -0.0182544 -0.001613884 -0.022124657 0.011182654 -0.02120453 -0.021095417
-0.0039034493 0.027871206 0.047137063 0.0028371224 0.00030328083 -0.013485511 -0.0024116717 0.024673231
-0.022861376 0.019984988 -0.01040682 0.019420054 0.033556107 -0.025019404 0.031623516 -0.03159574
0.041104235 0.016195953 0.062968045 -0.007585728 0.0136467265 -0.020102484 0.0274917 0.0011559898
-0.032385863 0.012846826 -0.0033728546 -0.0027501541 0.0022619304 0.029954208 0.040449295 -0.026966633
0.09004084 -0.008698101 0.0288983 0.033203673 -0.024859322 -0.03561627 0.026134558 0.052371107
0.029368287 0.026299302 0.010756344 0.013085051 0.034717888 0.0037380583 -0.0047212606 -0.026063837
-0.042790987 -0.02333109 -0.0063283555 0.0051096096 -0.0156777 -0.046728685 0.0013359168 -0.019307794
-0.016130067 -0.019502755 0.015209834 0.03704447 0.0011371067 -0.032663804 -0.0238695 -0.0057408987
0.010502361 0.009206545 -0.0118261445 0.009730405 -0.014719848 0.016876739 0.025841663 -0.013391931
0.0021381653 0.018772025 0.034259066 -0.0039504287 -0.009412117 -0.01729761 -0.016333168 0.05312798
0.023598779 -0.029830584 0.01503605 0.0009643025 0.021833507 0.03640503 0.023186555 -0.04418127

bias f4 [256]
00000000: 89c9 a6bc 9b87 253d 239b babb 34a2 e9bb
00000010: 1a0c 08bd 2c28 2dbc 7bee 003d 016e 8cbb
00000020: d544 23bd 08ca 1dbd 0893 84bc dc33 c53c
00000030: 4f23 be3c a0c2 18bc ef55 81bc 6a5c 41bd
00000040: 43ae 3bba f15b 653b aa9e ae3c b580 8cbc
00000050: 4e7d 0ebd 6f9b 1dbd 2d02 5ebc b388 8cbc
00000060: 7cfe d03c 3ce5 24bd bb11 10bd 3a34 fc3c
00000070: 3654 1abd fdb6 c33b 675a 07bd 25e2 bdbc
00000080: 48ac 283c 89aa f2bc d370 dbbc 5d2e 253d
00000090: cabb 17bd b278 5d3c bd13 cd3c 3b8c 973c
000000a0: 4c2f 2cbd 2192 d3bc 2fe0 92bc f43f 103d
000000b0: 9a77 053b 1a93 cc3c 73e2 283d 4eae ca3c
000000c0: d8f5 9c3c 1e14 10bd 1a0a ebbc 0b22 b03c
000000d0: a61c e6bc 8cf7 233d 38a0 1c3d d3fc ebbc
000000e0: 8f11 cebc ebbb 22bd 6cd4 76bc bf37 28bd
000000f0: 5374 323c 3547 1e3d 074b 07bd c961 91bc
00000100: de1c a5bc 9e64 c93c 1a46 a8bc 2b21 693c
00000110: 1d57 84bc 9984 683c 0fe8 043d 59f1 f3bc
00000120: 4e71 8d3c a652 30bd 65ed 0dbc 8ab5 6f3b
00000130: 4fc8 46bc 81d2 c13b e79c 29bd b130 a83c
00000140: 59c3 023c 39b7 9fbc 7773 aa3b f6e4 94bc
00000150: 1dfb 1ebd 378e 9ebc 4253 07bc 50b6 f93c
00000160: 074d 0fbc 11b7 16bd 337b 4f3c 4431 bc3c
00000170: 4332 9ebc c884 04bd d081 133d 6d09 3fbb
00000180: 01b7 023d 2917 adba 2337 ed3c 2941 d93c
00000190: 99a7 20bd ce0f c23b b2b6 c5bc 3a59 00bd
000001a0: b596 7d3c 86e9 23bd 63c0 d83c 3278 a0bb
000001b0: 746d efbc 766e febc f300 e73b 8ff9 8abb
000001c0: 977a 2bbc c3d2 fa3c 67ae 093b f831 2ebd
000001d0: 8017 113d b742 afbc bd84 c63b b106 acbc
000001e0: 9058 24bd 438b 0bbd 99dd 803c 7863 9cbc
000001f0: 5987 c6bc b6b9 95bc db21 33bc 1d2b 81bb
00000200: f5b4 a0bc 970a e93c d526 ca3c bf20 0f3d
00000210: 56d5 e63b 388b 073d e486 383b 3bcc 123d
00000220: 8807 9a3c 0c31 fd3c 1efe 0fbd ee03 2dba
00000230: a9b8 c3bb d33c 003d ae99 cbbc 90b9 133d
00000240: be3d ffbc 17ad 91bc afa6 ab3c 44c8 bf3c
00000250: 1035 953c 7158 213d 410c 163d 804a 163d
00000260: d007 50bc bef2 22bd 84d9 1a3d aeee 8c3c
00000270: 38d0 0c3c 88b2 8cbc 70d2 c2bc e6c6 9f3c
00000280: 8029 bc3c 6a5b 0cbb faca 273d 98e6 0fbd
00000290: c95d 13bd e190 423c a38c ea3c 30ef 07bc
000002a0: 5305 f33c 8bfb 18bd 4ed8 acbc 48cc c3bb
000002b0: 09d6 903b 8345 773c 454a ae3c f35d 8bbc
000002c0: 7919 673c 280d 193d 2978 163c e493 17bd
000002d0: ba6c 23bd ceb6 11bc 3910 a53c 4652 d4bc
000002e0: 2757 1e3d e292 b03c bfa8 2a3b fcc8 183c
000002f0: 5408 8abc ecbd 81bc 1e01 8bbc c6cd d4bc
00000300: cd86 e73c 95c5 cdbc 2c6e c0bc c4f2 c53b
00000310: 6c97 02bd fbf8 e93c 283c 723c 0d0c 813c
00000320: ef75 e539 60b1 0dbd 8cb2 5d3c cabe fc3b
00000330: 8518 603b 5e7c 26bb cd32 e23c 74ee 8e3c
00000340: 0563 b33c 3ae1 583b cad1 7f3c a323 83bb
00000350: 35a2 0fbd baea 953c 1b38 973c 786a 8d3c
00000360: 9f67 0dbd cf04 e23c a496 85bc 2760 a73c
00000370: e09b dc3c f4aa fdbb 4191 26bd 9531 6f3c
00000380: 4d28 1dbd 7e14 1a3d d28c 02bd ce4c 143d
00000390: 24d1 fabc 49f0 c6bc c0ad 943c dcad fcbc
000003a0: 781f ccbc c272 683b 2b14 aabc a1a4 1c3c
000003b0: 5d0e a5bc 3382 f5bc 7f4f 3d3b 8a45 a9bc
000003c0: 2177 993c 6906 143d 9726 1abd e449 22bb
000003d0: 5db2 543c 568f 8e3c 09fd fbbb 90f3 5ebc
000003e0: dd86 2b3c 108b 6cbb 336c 1a3d ddcc 293c
000003f0: c8db 8038 3a24 05bc fabe ebbc a486 003d
-0.020359771 0.040412527 -0.0056947633 -0.007129932 -0.033214666 -0.01056866 0.031477433 -0.0042855744
-0.039860565 -0.03852275 -0.016183391 0.02407258 0.023210196 -0.009323746 -0.015788047 -0.047207274
-0.0007159451 0.0034997428 0.021315891 -0.017151216 -0.03478747 -0.03847831 -0.013550323 -0.017155027
0.025511973 -0.040257677 -0.03517316 0.030786622 -0.037677966 0.0059727416 -0.0330452 -0.023179123
0.010294981 -0.029622333 -0.026787197 0.04032742 -0.037044324 0.013517546 0.025033826 0.018499484
-0.042037293 -0.025826516 -0.017929165 0.03521724 0.0020365478 0.024972487 0.041231584 0.024741318
0.019160196 -0.035175435 -0.02869134 0.021500608 -0.028089833 0.040031 0.038238734 -0.02880708
-0.025154857 -0.039729994 -0.015065294 -0.04106879 0.010891992 0.038642127 -0.033030536 -0.017746823
-0.020155367 0.02458411 -0.02054124 0.014229099 -0.01615482 0.01419177 0.03244787 -0.02977817
0.017265942 -0.04304757 -0.008662556 0.0036576712 -0.012132718 0.0059149866 -0.0414094 0.02053103
0.007981145 -0.019496547 0.0052017528 -0.018175583 -0.0388137 -0.019354923 -0.008259596 0.030482441
-0.008746392 -0.03679568 0.01266365 0.02297271 -0.019311076 -0.032353193 0.03601247 -0.0029149905
0.031912807 -0.0013205755 0.028956955 0.026520329 -0.039222334 0.005922294 -0.024134967 -0.031335093
0.015477826 -0.040017627 0.026458925 -0.004897141 -0.029226996 -0.031058531 0.0070496737 -0.0042411755
-0.010466239 0.030618077 0.0021008493 -0.042528123 0.035422802 -0.021394117 0.006058304 -0.020999284
-0.040123522 -0.034068357 0.015730666 -0.0190904 -0.02423446 -0.01827703 -0.010933365 -0.003941907
-0.019617537 0.028447432 0.02467672 0.03494334 0.0070444746 0.033091754 0.0028156573 0.0358393
0.01880242 0.030907176 -0.035154454 -0.0006600012 -0.005972941 0.031308006 -0.024853554 0.036065638
-0.03115737 -0.017782731 0.020953504 0.023410924 0.018213779 0.039390985 0.03663278 0.036692142
-0.012697175 -0.03978228 0.037805095 0.017203655 0.008594565 -0.017174974 -0.023781985 0.019504022
0.022969007 -0.0021416792 0.040965058 -0.03513202 -0.035978112 0.011875362 0.028631514 -0.008296773
0.029665625 -0.037349265 -0.021099236 -0.00597528 0.004420046 0.0150922565 0.021275649 -0.017012572
0.014105194 0.037366062 0.009183922 -0.037006274 -0.03989861 -0.008893682 0.020149337 -0.025918137
0.038657334 0.021554414 0.0026040522 0.009325262 -0.016849674 -0.015837632 -0.016968306 -0.025977027
0.02826252 -0.025118629 -0.023490034 0.006040903 -0.03188269 0.028561106 0.01478485 0.015752817
0.0004376615 -0.034592986 0.013531338 0.0077131735 0.0034194302 -0.0025403718 0.027612114 0.017447688
0.021897802 0.003309323 0.015613982 -0.004002051 -0.035066802 0.018300403 0.01845937 0.017262682
-0.03452265 0.027590184 -0.016307183 0.020431591 0.026929796 -0.0077413265 -0.04066587 0.014599224
-0.038368512 0.0376172 -0.031872578 0.03620606 -0.030617304 -0.024284499 0.018149257 -0.030844621
-0.02491735 0.0035468792 -0.02076157 0.009560735 -0.02014845 -0.02996931 0.0028886495 -0.020663042
0.018733563 0.036138926 -0.03763446 -0.002476328 0.012981978 0.017402332 -0.0076900763 -0.0136078745
0.010469166 -0.003609363 0.037700843 0.010363785 6.144453e-05 -0.008126313 -0.028777588 0.031378403

weight f4 [128, 256]
00000000: d974 093d 1417 0dbd deed d5bb 03e5 f2bc
00000010: c415 33bc 3958 fcbb a4d6 3ebd 8b4b 3f3c
00000020: 44e6 093d 0679 70bd b9c0 52bd c604 cabc
00000030: e2ed 5b3c 8c2e 21bd 0d99 0bbc f88f 65bd
00000040: fd81 bf3c c7cd 463d 3d89 94bd 0b70 63bd
00000050: ddab fc3c 4299 8fbd df57 d73c ea84 43bc
00000060: 1fa6 b2bc d2e0 543d 8b75 1fbd e211 1a3d
00000070: 6d8e dd3d 68d4 48ba b9f8 003d b651 37bc
00000080: b0d0 40bd 0288 463d 030f 11bd a98a 823c
00000090: a3ae dd3b 0155 dc3c ba12 25bd 9e92 84bd
000000a0: f34d 0bbd bdb5 66bd 163f 253d b7c4 ae3c
000000b0: 1575 7abc b821 56bc 9a94 a93a dfd1 b6bc
000000c0: 61c8 c9bc c01c 143b 2ebe 1d3d 3f03 a2bc
000000d0: f220 6cbd 3568 1e3c 4caf df3c 681f 3bbd
000000e0: d279 87bc 87fd eabc 27f7 0dbd bb1d e03c
000000f0: fb7d 353c 71df d83c ca44 cdbc 6a1b bd3c
00000100: 1342 003d d089 293d 7b23 8cbd 0c82 2bbd
00000110: a91a 6cbd 9fcb a9bc 835b 2d3d d7c1 59bc
00000120: 0e20 36bd ab78 3bbd ff23 54bd 9b79 893c
00000130: 169d f3bb aa60 453c 3b8b d1bb d226 313d
00000140: a623 293d e1e5 aabb 8ba4 c63c 5222 0dbd
00000150: 7025 fabc dd3c a5bd d5ef 8a3d 5227 a0bc
00000160: 42cb 883d b1a0 b2bb d12f 24bd 234c 903c
00000170: 01eb 633d 8702 44bd 8f54 10bd a9b5 a8bc
00000180: 7767 ccbc 340b f33c d66f f43c aaf8 babd
00000190: f267 a83c 515b e03c 10e3 4fbd d555 d2bc
000001a0: 6631 7dbc 2a01 a33b c3dc 9a3c 29c8 823b
000001b0: 5269 0fbc d794 1e3d 98d6 8bbd 12c8 e5bb
000001c0: 79ec 913b 4a0e 00bd e6d7 9dbd fc98 e2bc
000001d0: aac2 8c3d b031 80bc bff4 b1bc fdaf 04bd
000001e0: ef8a 03bd 4aae a73c b5da df3c 3b6e acbd
000001f0: 122a 203d 8c77 a3bc 12c8 8b3c 7d2f 17bd
00000200: 12cd 71bd 3c1c 973a db8b c7bb 524d 523a
00000210: 07e1 7f3c e2a6 10bc 2740 203d 9cdd 8cbc
00000220: 77fd 243c cf00 0d3b 4c5d 8a3b e784 82bd
00000230: 7028 643d e7c5 d63c 0cc3 8f3d 67d5 9739
00000240: 8bb0 733d 5f35 89bc c4c3 013d f48e 02bc
00000250: 8d9b 3abd e4b8 cf3c aa1e ed3c 8944 a63d
00000260: 4cb7 2b3d a422 2bbc 01cc 363d 3657 543d
00000270: 9a64 e13c 6c0c 8f3c 65ee 793c e056 44bb
00000280: 4b7c 8b3d 43c5 013d b14f 573d 41c9 9d3c
00000290: a705 bb3c 029d 0ebd e29d 7f3c 0728 d83c
000002a0: a4bf 6f3c f15f 813c 2dd1 fc3c 2b14 303c
000002b0: e0cc 943c 8869 a4bc 5ff1 093d 9786 afbc
000002c0: a3c8 9bbd bf2a 9a3c 8bd5 4039 4715 5dbd
000002d0: 1335 f1bb e027 823d acef 4ebb ed61 343c
000002e0: 7c4f d93b a277 033d 4576 8abc 91f7 56bc
000002f0: 1ea8 753d 89c6 363d 3c60 053d 8d2b a53c
00000300: ecdb 18bd ef49 c13c ed5e 833c 9635 2c3d
00000310: fd9c 2bbc 801e 173d 1d4a de3c a004 0e3d
00000320: fbd8 d53c e9e8 bdbc ad22 aa3c 4808 1cbd
00000330: d124 243d 89e2 433c 72b5 743c 2208 6a3d
00000340: 25db 143c ab4a e3bb ccdd 903b 6732 48bd
00000350: a873 0b3d 676e 23bd 8f11 183d c659 69bc
00000360: 4979 eb3c a5e1 233b 6146 4dbd f95f 01bd
00000370: 1931 bbbb 0eba 423d 8cf9 1a3b e351 243b
00000380: 9395 7f3d c198 ae3c dd55 2bbd 2fd6 babc
00000390: ef03 bfbc 4b00 c5ba 45e8 0f3b 6ba2 5e3b
000003a0: 6383 1e3d 2658 443d ff51 66bd 1823 e13c
000003b0: 94f1 953c 0a41 16bd 7713 91bd 7ed8 48bb
000003c0: e2bc 123d d033 bdba 4d04 bb3a b989 813c
000003d0: 20ea 093c 1bd5 633c f7dd a6bc db4a aebc
000003e0: 0ee3 e4bc b593 d73c 233e f6bc ab7d 85bc
000003f0: 109f 813a 646d 453d 405b be3c e907 c53c
0.0335587 -0.034445837 -0.0065286 -0.029650217 -0.010930482 -0.0077009466 -0.046591416 0.011675726
0.033666864 -0.058709167 -0.051453326 -0.02466048 0.013423415 -0.03935103 -0.008520377 -0.056045502
0.023377413 0.04853609 -0.072527386 -0.055526774 0.03084367 -0.070116535 0.026287017 -0.011933545
-0.021807728 0.051972218 -0.038930457 0.03761471 0.10818181 -0.00076610455 0.0314872 -0.011188915
-0.04707402 0.04846955 -0.035414707 0.015935259 0.006765203 0.026896002 -0.040301062 -0.064732775
-0.034009885 -0.056325663 0.040343367 0.021334035 -0.015286704 -0.013069563 0.0012937963 -0.022316871
-0.02463168 0.0022600144 0.038511448 -0.019776938 -0.057648607 0.0096684 0.027305268 -0.04568425
-0.01653758 -0.028685344 -0.03465953 0.027357927 0.011077399 0.026473733 -0.025057215 0.023084361
0.031313013 0.041391194 -0.06842705 -0.04187207 -0.057642613 -0.020726977 0.0423236 -0.013290844
-0.044464163 -0.045769375 -0.05179214 0.016781619 -0.0074344976 0.012046972 -0.0063947714 0.043249913
0.041293763 -0.005215392 0.024248382 -0.03445656 -0.03053543 -0.080682494 0.067840256 -0.01955
0.06679393 -0.005451285 -0.040084664 0.01761443 0.05564404 -0.047853973 -0.03523689 -0.020594435
-0.02495168 0.029668428 0.029838484 -0.0912946 0.020557377 0.027387293 -0.050753653 -0.025675694
-0.015453672 0.004974504 0.018904096 0.003991146 -0.008753138 0.038716163 -0.0682804 -0.0070123756
0.0044532386 -0.031263627 -0.07707195 -0.02766084 0.06873067 -0.015648693 -0.02172315 -0.032394398
-0.03211492 0.02046885 0.027325967 -0.08419462 0.03910262 -0.019954465 0.017063174 -0.036910523
-0.05903346 0.00115288 -0.00608967 0.0008022386 0.015617616 -0.00882885 0.03912368 -0.017195515
0.010070196 0.0021515375 0.0042225476 -0.06373005 0.055702627 0.026217414 0.07019624 0.00028959961
0.059494536 -0.016749082 0.031680837 -0.007968653 -0.0455585 0.025356717 0.028945286 0.08118541
0.041922852 -0.010445271 0.044628147 0.051840983 0.02751379 0.017461978 0.015254592 -0.0029959008
0.068108164 0.031682264 0.052566234 0.019261004 0.022829844 -0.034817703 0.015601607 0.026386274
0.014633093 0.015792819 0.030861462 0.010746996 0.018164098 -0.020069852 0.033677455 -0.021426482
-0.07606628 0.018819211 0.00018390098 -0.05397537 -0.0073610633 0.06355262 -0.003157596 0.011009675
0.0066317897 0.032096513 -0.016902098 -0.013120548 0.059974782 0.04462293 0.03256248 0.020162368
-0.03731911 0.023594825 0.016036475 0.04204329 -0.010474441 0.03689432 0.02713495 0.03467238
0.02610444 -0.02318235 0.020768488 -0.038093835 0.040074173 0.011955866 0.014935838 0.057136662
0.009085451 -0.0069363913 0.0044209715 -0.048876192 0.034045845 -0.03990021 0.03712612 -0.014242595
0.028744357 0.002500632 -0.050115947 -0.031585667 -0.00571264 0.047540717 0.0023647277 0.0025073222
0.062398504 0.021313073 -0.041829932 -0.022807209 -0.023317305 -0.0015029995 0.0021958512 0.003397132
0.03869952 0.047935627 -0.05623054 0.027482554 0.01830367 -0.03668312 -0.07083791 -0.0030646618
0.035824664 -0.0014434997 0.001426825 0.015812742 0.008417636 0.013905789 -0.020369513 -0.021275928
-0.0279403 0.02631555 -0.030058926 -0.016295275 0.0009889323 0.048200026 0.02323687 0.024051623

bias f4 [128]
00000000: 0b1f 88bc aea3 173d cd6a c4bc d16b 303d
00000010: 4f48 323d 2fe7 7abc d58a fabc cde3 393d
00000020: 7de4 293d 1b17 24bd b41f b23c c824 0d3d
00000030: 85dd 23bd b39f 993c 6cf4 b03c 661b 0e3c
00000040: d0d9 ce3c 5734 23bd 3224 163d 027e 153d
00000050: 71a6 03bd 7ef7 f03c 0367 263d 591b 333d
00000060: 6277 14bd 04d8 603d 6e07 53bd 1c19 45bc
00000070: 1553 473d cfc4 193c 3ce9 f03c 9acb 353d
00000080: b54c 6dbd 630c 8dba a4ff 80bc 6cae 5e3d
00000090: d494 63bd e166 3d3d ade3 8cbb a6da 823c
000000a0: 8ae0 e43b 7f00 eb3c 55d2 303d 87dd 87bc
000000b0: 43f7 e8bc 3113 26bd 7bf2 36bd 1fcd 8f3b
000000c0: dbcd 17bd 6f69 3cbd c026 583c 41f4 8f3c
000000d0: 4213 7ebc 04bc bdbc 70dc b53c 0544 42bd
000000e0: 4fb5 3ebd 166f 28bc f6c8 d3bb fe38 e9bb
000000f0: 6083 62bd bf7e 44bd 25ce e23c 838e 5d3c
00000100: f66f 183d a6d5 453d 215c 583d 5ece 22bd
00000110: ca7c e63c 2040 40bc 102e 093d fb2f a73b
00000120: cf02 2abc 4fcd 3ebc 4443 493c bad4 273d
00000130: b0fd 543c d428 62bd a173 d63c e066 143b
00000140: ab7f 303d 8ce3 1bbb 9c9f ecbc 1309 1c3d
00000150: 1f1a cd3c 9035 033d 2645 483d fea9 643d
00000160: 1043 ecbc c2dc 433d a1c1 3cbd 27e7 bbbc
00000170: 76b7 0b3c eb91 32bc 89c6 b5bc e9de 213d
00000180: 799f 613d 9417 233c 6b6d 28bd 0e21 60bd
00000190: 3649 81bd e417 343d 4f37 febc 32f7 79bd
000001a0: 1426 34bd 5de7 08bd 00ff a93c e6ee bbbc
000001b0: dda9 fdbc 0612 b0bc a00c 50bd 6ef7 c93a
000001c0: 6613 513d 58d1 98bc c2b6 b9bc 09cc ab3c
000001d0: 8092 b9bc 0e3d f8bc ca9b 51bd d294 bd3c
000001e0: 9b19 2d3d 465d 4bbd b531 273d 8f8a 0bbc
000001f0: a05f b7bb 83eb bd3c 2ebc 3e3d 4944 9f3c
-0.016616365 0.03702133 -0.023976708 0.04307157 0.04352599 -0.0153139075 -0.030583778 0.045383263
0.04147767 -0.040061098 0.021743633 0.034458905 -0.04000618 0.018752908 0.021600924 0.0086735245
0.025250345 -0.039844837 0.036655612 0.036497124 -0.032141153 0.029414888 0.040625583 0.043727253
-0.036246665 0.05489351 -0.051520757 -0.012029912 0.048663218 0.009385302 0.02940809 0.044383623
-0.05793448 -0.0010761138 -0.015746899 0.05436556 -0.055561855 0.04624069 -0.004299602 0.0159734
0.006984775 0.02868676 0.04316934 -0.016585125 -0.028438216 -0.040545646 -0.04466484 0.004388466
-0.037061553 -0.045998987 0.0131928325 0.017572524 -0.015507521 -0.023160942 0.02219984 -0.04742815
-0.046559628 -0.010280391 -0.0064631654 -0.0071173897 -0.05530107 -0.047972437 0.027686188 0.013522747
0.03721615 0.048299454 0.052822236 -0.03974759 0.028135676 -0.011734039 0.033491194 0.0051021553
-0.010376646 -0.011645629 0.012284104 0.040974356 0.012999937 -0.055214718 0.026178183 0.0022644326
0.043090504 -0.0023786752 -0.028884701 0.03809459 0.02503687 0.032033503 0.04889407 0.05582618
-0.028840572 0.047817953 -0.046083096 -0.02293737 0.008527627 -0.010899047 -0.022189396 0.039519224
0.055083726 0.009954352 -0.041119974 -0.054719023 -0.06312792 0.043968096 -0.031032233 -0.06102676
-0.043981627 -0.03342377 0.020751476 -0.022941064 -0.030964786 -0.02149297 -0.05079329 0.0015408823
0.05104389 -0.01865451 -0.022670154 0.020971315 -0.022652864 -0.03030255 -0.051173963 0.023142252
0.042260747 -0.0496495 0.04081889 -0.008516922 -0.005596116 0.02318359 0.04656618 0.01944174

weight f4 [64, 128]
00000000: ccb7 503c 38fd 173d 05ee c83d 658a 4bbd
00000010: 1d18 113d 1b8b c53c d410 2d3b 0580 9cbc
00000020: 7cb9 93bd ea07 9bbd 5aa2 15bd 6d95 f4bc
00000030: b55d 52bc 861b a4bb e894 cfbd a1ac 7abd
00000040: abe9 803a 87dd 0a3d a453 fe3d 530c 2fbd
00000050: 964e 3cbd ec97 0abc 7019 5c3d 2d0e c73d
00000060: 5b5b 8bbc dd54 3a3d fccf 843d 4c42 87ba
00000070: 937c fd3b b2fc a93c 158b 263d 4460 daba
00000080: 1879 e1bc 028a f63b 539c 273d 11bf 9fbc
00000090: b5dc 4d3d 4b71 73bb 25e3 bc3c af84 1e3d
000000a0: 7eb3 8f3c 6666 773d 5108 97bc 6cd4 b1bd
000000b0: c78b 1a3d a651 bcba e1c9 d03d 6313 9dbd
000000c0: 5144 4f3d aa4b eabd b477 1e3e ff93 b83d
000000d0: 3380 86bd 14c7 1a3e ae47 0fbc 682e c4bc
000000e0: a6e5 3dbd a1a9 ff3c 255e 9f3d 00b3 b93c
000000f0: fee9 62bd 5620 a03c 8bc6 99bd bdeb b0bc
00000100: 11cd 483d 9abf 423d 9a63 013d 4b43 4e3d
00000110: 5c8e f4bd 041f 1939 0363 a7bc c496 183c
00000120: 1bb4 123d 3853 9ebc eba1 8f3d a6b8 c3bc
00000130: dc3a 243d bc59 a4bb e2df 3a3d 1ea1 2abd
00000140: 3199 0b3e 67bb adbd 2ad3 7c3c 3f71 82bc
00000150: 26ca dabd 6668 cb3d b275 323c e2d4 b2bd
00000160: a9ca b9bd eea4 60b9 338f e13d 1dea 94bc
00000170: 5fd1 e23c e4b7 1e3d 2f1d 8dbd 327a 8a3d
00000180: 8fa7 36bc 89f9 b13d 6fc9 0e3e ff4c 52bc
00000190: 2643 2dbc b2ce 32bc 757b 433d f553 393c
000001a0: f3c6 8e3c 7c75 7f3d 1536 4639 0d9d 2e3b
000001b0: ed2a 27bd 3f53 a73d c73c 48bd 96aa 3bbd
000001c0: 72ae bdbc e988 29bd 8132 b7bd c87b 243d
000001d0: ddaa 16bd 5276 1bbd 446f f73b 13f4 b43c
000001e0: 7ffb 93bd c530 cbbd ffd6 2b3b ec1e c8bd
000001f0: 764d 50bd 50a9 c73c 2bac b1bc c5b4 443b
00000200: eff7 4b3c 4071 88bc b7db 463d 9dac 2cbd
00000210: 1f55 313d 5e49 27bc 7747 fa3d 0e61 f4bc
00000220: 63e4 a2bd 96df 1cbd 9bbb 31be 0f82 e4bd
00000230: 19cc 31bd 3bb8 0b3d 7346 3fbd d7ef 1fbe
00000240: 2b31 f53d b815 3bbd fefb 913d 1d20 abbd
00000250: cc58 f83b 1984 79bd b1e0 153c 58c1 833d
00000260: 0170 e23c b107 b43d 847f 5b3d caf9 a8bd
00000270: ed9d fc3c 7ad7 bbbc 2ce3 72bd a8d0 ecbc
00000280: 0490 043e 8c71 b63c 6773 033d 61f7 c8bd
00000290: daec b9bc cecd edbc a42d 6b3d 5e09 803c
000002a0: eb92 3cbd 90b7 0b3e 7b31 a8bd 5712 81bd
000002b0: 295e 683d 9601 c8bd e90e 113d c77c 273c
000002c0: 3f2c 0f3e f6d2 c1bc e7d1 373d a9b5 053e
000002d0: ccf3 1ebd 442d 293d 6123 20bd d999 03bc
000002e0: 22fd e73c 99e4 d53d 3b39 c13b 5b75 c93d
000002f0: 3fdb 01be 8ccb babd a2c1 2cbd a05d 38bc
00000300: fec1 a23c 8939 2ebd 685f 743c 471a b1bc
00000310: 9899 89bd e3b2 2e3d 5122 ecbc e7f4 39bd
00000320: 70d7 25bd 5885 aebc f735 633c 6896 9abc
00000330: 7df2 5e3d 806f 43bd fbc6 093e db3e 8bbd
00000340: b893 b13d 4a8b 0fbe 52e1 76bd 328a f93b
00000350: 778c 56bd 0d89 c73d 2211 85bc 7230 29be
00000360: 758d f1bd 40e1 663d a199 3a3d 0cd1 393d
00000370: b104 203e e17e 85bc a319 d5bd eb78 553b
00000380: 4bba 58bd 5dec 963d d14b fc3d a080 363d
00000390: cfbb 4b3d 8cea dbbd 0ea1 91bc 24c8 fbbc
000003a0: e1d5 f93d 6460 663d bb5d d8bd 1796 adbc
000003b0: 54d8 4d3d e4dd 273d 5436 34bd b2b3 c3bd
000003c0: 7de4 043d 2c16 81bd 4a3b 803b 32b6 353d
000003d0: 2acc ddbd d59e 3bbd c437 97bd 0026 23bd
000003e0: 38e3 d0bd b921 d4bc da13 efbd fc3b 07be
000003f0: b4f0 d43b 5be3 7dbd 6417 37bd c70a dcbc
0.012739133 0.037106723 0.098110236 -0.04969253 0.035423387 0.024114182 0.0026407735 -0.019104013
-0.07213113 -0.07569869 -0.036531784 -0.029856408 -0.012839724 -0.005008164 -0.101358235 -0.061199788
0.0009835263 0.03390267 0.12418297 -0.042736363 -0.045973383 -0.008459073 0.053735197 0.09719501
-0.017011335 0.04549109 0.06484982 -0.0010319441 0.0077357977 0.020750377 0.040659983 -0.001666077
-0.027523562 0.007523776 0.040920567 -0.019500287 0.05025931 -0.0037146385 0.02305753 0.038700756
0.017541643 0.06040039 -0.018436583 -0.086830944 0.03773096 -0.0014367595 0.10194755 -0.07669713
0.05060226 -0.11440213 0.1547535 0.09012603 -0.06567421 0.15115005 -0.008745117 -0.02394791
-0.046361588 0.031208815 0.077816285 0.022668362 -0.055398934 0.019546669 -0.07508572 -0.021596784
0.04902369 0.047546007 0.031589128 0.050357144 -0.119412154 0.00014602771 -0.020432955 0.009313289
0.035816293 -0.019326791 0.07013305 -0.023891758 0.040095195 -0.00501558 0.045623668 -0.04165756
0.13632657 -0.0848301 0.015431205 -0.01592314 -0.10683088 0.09932022 0.010892319 -0.087320104
-0.090718575 -0.00021423746 0.11013641 -0.01817804 0.027687727 0.03874959 -0.06890332 0.06761588
-0.0111483475 0.08690173 0.13944028 -0.01283574 -0.0105750915 -0.010913538 0.04772516 0.011311521
0.01742885 0.0623679 0.00018902899 0.0026643903 -0.04081242 0.08170175 -0.048886087 -0.04581698
-0.023154471 -0.041390333 -0.0894518 0.04015711 -0.03678404 -0.037954636 0.0075511057 0.02208904
-0.072257034 -0.099214114 0.0026220677 -0.09771523 -0.050855123 0.024372727 -0.021688541 0.0030014974
0.012449249 -0.016655564 0.04854938 -0.042156804 0.04329407 -0.010210363 0.12220662 -0.029831436
-0.079537176 -0.038299166 -0.17356722 -0.11157619 -0.043407533 0.034111243 -0.046698045 -0.15618835
0.11972269 -0.04567501 0.07128142 -0.083557345 0.007578945 -0.060916994 0.009147809 0.06433362
0.027641298 0.087905295 0.053588405 -0.082507685 0.030837024 -0.022929896 -0.05929868 -0.028908089
0.12945563 0.02227094 0.032092478 -0.09812809 -0.022695947 -0.0290288 0.057416573 0.015629467
-0.04603855 0.13644242 -0.08212563 -0.06302326 0.056730423 -0.097659275 0.03541461 0.01022262
0.13981722 -0.023660164 0.044877913 0.13057579 -0.03880672 0.041302934 -0.03909624 -0.008032286
0.028318945 0.10443992 0.005896715 0.09836837 -0.12681292 -0.09120855 -0.04217685 -0.011252791
0.019867893 -0.04253534 0.014915325 -0.021618975 -0.06718749 0.04265107 -0.028824957 -0.045399573
-0.04048866 -0.021303818 0.013867847 -0.018870547 0.054430474 -0.047713757 0.13454811 -0.06799098
0.08670753 -0.14017978 -0.060273476 0.007615351 -0.05238005 0.09742937 -0.016243521 -0.16522387
-0.11794559 0.05636716 0.04555667 0.04536538 0.1562679 -0.016295852 -0.104052804 0.0032573293
-0.052912038 0.073693015 0.12319148 0.04455626 0.049739655 -0.10738096 -0.017776992 -0.030735083
0.12198997 0.05624427 -0.10564753 -0.021189732 0.050255135 0.040983096 -0.043997124 -0.095557585
0.032444466 -0.06303057 0.003913318 0.044363208 -0.10829957 -0.04580577 -0.07383683 -0.03983116
-0.101995885 -0.025894986 -0.11673708 -0.13206476 0.0064984206 -0.0619844 -0.04470004 -0.026860608

bias f4 [64]
00000000: 11ea e0bc 58c8 b637 1b5c 303d 2078 a13d
00000010: be55 e7bc b878 bc3c 3a1f 28bc f530 ce3c
00000020: d961 013d 87ec 0abd ca6d 07bd 914e 20bc
00000030: 0760 bc3a 7171 21bd 668d 863c a9ba 65bc
00000040: 49ef 3a3a f641 44bc d67b 35bd 0877 1dbd
00000050: fbe1 96bc 4633 06ba 7e56 22bd 4351 bebc
00000060: 6de9 98bc d8cb 263d 128d e0ba fdde 453d
00000070: eff7 a53c 3b7e b0bc c4b0 8dbd 7342 e6bc
00000080: c112 6dbc 463c 633b f0e6 333b 5a56 b2bd
00000090: 7498 9ebd 9f83 d23a d662 a83b 8c45 a03d
000000a0: 4e9c 8e3c 380a 773c c9ae 04bd 1c6b 06bd
000000b0: aee8 aabc 306d 883b 8239 783c 5cb6 5f3c
000000c0: 9ffb a3bc f328 b13c 712d 433d 1399 8a3c
000000d0: ef51 a2ba 5013 8b3d 5f2a 8d3b 8689 24bd
000000e0: 9b61 cb3b 73d9 fb3b 88c0 dd3c 4df5 96bc
000000f0: b62a 65bd 07ca b63c 54d3 fbbc b558 ae3b
-0.027455362 2.1789383e-05 0.04305659 0.0788424 -0.028239127 0.023006782 -0.010261351 0.025169829
0.031587455 -0.033916976 -0.033063687 -0.009784357 0.001437188 -0.039414827 0.016424846 -0.014021554
0.0007130993 -0.011978617 -0.044307552 -0.038443595 -0.018418303 -0.00051193347 -0.039633267 -0.023232108
-0.018665994 0.040721744 -0.0017131886 0.04830836 0.020259826 -0.021544566 -0.06918481 -0.028107857
-0.014469803 0.0034673377 0.0027450882 -0.087078765 -0.07743922 0.0016060955 0.0051387353 0.07825765
0.017408516 0.01507812 -0.03239325 -0.03281699 -0.020862903 0.004163407 0.01515043 0.013654318
-0.020017443 0.021625971 0.04765076 0.016918695 -0.0012384037 0.06790793 0.0043080295 -0.040170215
0.006206704 0.007685834 0.027069345 -0.018427515 -0.055948935 0.022313131 -0.030740418 0.0053206333

weight f4 [16, 64]
00000000: c8d3 813d 3f74 103e 6134 5dbd e095 49bd
00000010: 1abf 833e 58a9 43bd 9228 25bc 1eb3 463d
00000020: 059e d73c 738b 7c3e 00a3 a43d 16d1 9dbd
00000030: 0214 713e fa43 133d e720 853e 17c7 6e3e
00000040: f4a0 e4bc 3071 043e 7027 d23d cf67 923e
00000050: b9d9 6a3d 9049 1bbc 351a 9dbd 438a 8ebe
00000060: 7f32 453d 291b 12bd e6b0 03bd 34f1 af3d
00000070: a853 153e 67df 203e 48f5 55bd 0b0b f13d
00000080: 2b94 05be 0fbe 603e 3e4e 3a3e 632c 22be
00000090: 2e42 d1be 1c7d 2ebe 89a0 bf3c 1352 a43e
000000a0: 7cda 89bc bb8c 493e 72b9 043e 1828 943e
000000b0: 5cb1 53be 44c5 a73d 1bbc a43e d335 babc
000000c0: 405b d83d 1f48 b33d 3b97 7b3d 9a89 53ba
000000d0: 3284 913d 1ae4 8b3e fd62 3b3d 49ef 75be
000000e0: 5803 ed3c 398e 753d b007 cd3d 65c4 03be
000000f0: 1d54 92be 7ff2 073d 51f8 063d e658 e6bd
00000100: d56e eebc 3326 993b 87ca 4d3e 5d38 5fbd
00000110: 3d36 78ba 490b 123d f026 4ebd 6f15 5e3b
00000120: 6873 883d bc25 42bd 3223 15bd 6cc4 043c
00000130: a516 17be 9765 31bd f8ba 983d d68b c8bd
00000140: 0e6b 7eba 3ab8 fdbc 5e40 6b3d 1d4e b3bc
00000150: bf90 603e 0df9 8ebb 38e0 853d c544 b03d
00000160: ee5d 103e 8241 be3c ec47 bbbc 3f51 103e
00000170: 7d5b 6d3d 4a70 cc3a e799 febd 842e c2bd
00000180: 537c 563e 4b17 afbd cb71 97bd 709d e73d
00000190: 1795 80bd cf01 7b3c 78a9 813d 720d 1d3c
000001a0: 3e75 a03c aa7e c8ba 836e 433d 5793 243d
000001b0: 1b84 acbc b607 8e3d 96db 0ebd 697d fb3d
000001c0: ec3c 54bd c281 b73d abed a6bc eff6 d13c
000001d0: 6fe6 5a3d 7466 df3b e2be 25bd 81cf 173d
000001e0: 190a 64bd 33a9 7ebe c90e b5bd ae87 c5bd
000001f0: dd3e efbd 7584 1ebd cc17 56be 34b2 2e3c
00000200: b312 4dbd ef7d ba3d 3609 1dbd e55a a8bd
00000210: dcf2 1d3d dafc 973b 9ed0 3fbd ff75 c2bd
00000220: 715e 01bd 6cbb ff3d d433 f93c cbea 4abe
00000230: 5ab1 ac3d d7bd 103d d21f 883e fa39 0b3e
00000240: b165 123d 3d4b 8b3e fc7a dcbd 9723 2abd
00000250: 7e51 993d b393 17bc 5654 c63c a098 c9bd
00000260: 35bc fb3c dca0 afbc 36a0 88bd 1b64 033e
00000270: 521c 7ebc 906a 1dbd 6dce 9ebd 72ae 233d
00000280: b075 453d 2c2b 1e3d bd1b 00bd 83d1 463c
00000290: 60ef 08bd 472d 98be 377a 7dbc 72c8 8a3d
000002a0: d9b8 df3c 0c78 473c bfcf 353d 1c5a 5a3c
000002b0: 4d32 fabd c9dc 673d 67ef 093d 890e 0e3e
000002c0: cf2e b4bd 0588 9dbb e3b2 293d 2f9e 693d
000002d0: 2513 743e 9924 ba3d b354 9cbd 6334 42be
000002e0: 19a3 7d3e 0968 033c 6934 a1bd 0b6e febd
000002f0: 867f 5bbe 482d 19be 658c 863c db0a 81bc
00000300: 922f ce3e bede 3b3d af8c 5a3d bcb3 bebe
00000310: 3468 b63d be4e dcbe b19f 763f 3a12 333e
00000320: 6782 fa3d 7266 083e 3519 173d a354 883d
00000330: b3cc cc3d 5aba 5e3f a3ea f73d 49c7 183d
00000340: a1cc 373f 9ed4 c83d 6ba1 e23d f7fc 4e3c
00000350: a337 0a3e fb52 5d3f 46be 6f3f 767b 9cbe
00000360: 47e1 b8be bf60 1dbf 7a42 703f 4339 513e
00000370: aef9 84bd fe34 023e cce4 89bc 4cb1 903c
00000380: 9cd6 d4bd c7e6 143e e89c eb3d 947d c2bd
00000390: 3311 b6be f8a6 a0bc 1017 7f3f d870 833d
000003a0: c8bb 833f fb04 3e3d 6f05 8e3e a584 1a3e
000003b0: 09cc 543c a1a1 8e3f 1977 1a3e 387a 2e3e
000003c0: eaf1 6a3f 676f 763d 83e7 a3be 6595 483f
000003d0: 3b82 0e3e 5838 7b3e fa08 713f e612 2d3d
000003e0: b50e 1e3e 16dc 5abd ce26 d63d 6c81 84bd
000003f0: ffc8 9e3d 10d2 923b bd8d a5bd c804 ebbe
0.06339222 0.14106844 -0.05400503 -0.049215198 0.25731736 -0.04776892 -0.0100804735 0.048510663
0.026320467 0.2466257 0.08038902 -0.077058956 0.23542789 0.0359535 0.26001665 0.23318134
-0.02790878 0.12933803 0.10261428 0.28594825 0.057336543 -0.009477988 -0.07671014 -0.2783986
0.04814386 -0.035670433 -0.032151125 0.08590928 0.14582694 0.15710221 -0.05223587 0.117696844
-0.13044803 0.21947502 0.1819391 -0.15837245 -0.40870804 -0.17039913 0.023391979 0.32093868
-0.016827814 0.1968259 0.12961367 0.2893684 -0.20673126 0.08191922 0.32174763 -0.022730744
0.105642796 0.087539904 0.06142352 -0.00080695155 0.071052924 0.27322465 0.0457487 -0.24017061
0.028932258 0.059950087 0.10011232 -0.12867887 -0.28579798 0.033190247 0.032951657 -0.11247425
-0.029105583 0.004673743 0.2009679 -0.05449711 -0.00094685314 0.035655294 -0.050330102 0.0033887287
0.06662637 -0.047399268 -0.036410518 0.008103471 -0.14754732 -0.043309774 0.074575365 -0.097922966
-0.00097052834 -0.030971635 0.057434432 -0.021887833 0.21930216 -0.0043631853 0.06536907 0.08606867
0.14098331 0.023224596 -0.022861443 0.14093493 0.05794858 0.001559743 -0.12431698 -0.094815284
0.20945863 -0.08549365 -0.07394751 0.11309326 -0.06278437 0.015320255 0.06331152 0.009585725
0.019587155 -0.0015296538 0.047712814 0.040179577 -0.021059087 0.069350645 -0.034877382 0.122797795
-0.051815912 0.08960296 -0.020377 0.025630442 0.053442415 0.0068176333 -0.040465243 0.037063126
-0.055673692 -0.24869232 -0.08840711 -0.096450195 -0.11681912 -0.03870054 -0.20907515 0.010662604
-0.05006666 0.09106051 -0.038338862 -0.08220462 0.038561687 0.0046382966 -0.046829812 -0.09495162
-0.031584207 0.1248692 0.030420221 -0.19816129 0.084322646 0.035337295 0.26586777 0.13596335
0.03574151 0.2720584 -0.10765645 -0.041537847 0.074862465 -0.009251523 0.024210136 -0.09843564
0.030729393 -0.021439008 -0.06671183 0.12831156 -0.015509682 -0.038431704 -0.07754216 0.039961286
0.04820794 0.03861539 -0.031276453 0.012134912 -0.03343141 -0.29722044 -0.015471033 0.06776513
0.027309822 0.0121746175 0.044387575 0.013327148 -0.12216625 0.05660704 0.033675577 0.13872732
-0.087979905 -0.0048074746 0.041430365 0.05703562 0.23835428 0.09089012 -0.076333426 -0.18965296
0.24769248 0.008020409 -0.078713246 -0.12423333 -0.21435365 -0.1495868 0.016424367 -0.015752247
0.40270668 0.04586672 0.053356823 -0.372465 0.08906594 -0.43028826 0.9633742 0.17487422
0.122319035 0.1332033 0.036889274 0.06656768 0.09999981 0.870031 0.121053 0.037299428
0.71796614 0.098061785 0.11065944 0.012633554 0.13497786 0.86454743 0.9364971 -0.30562943
-0.36109373 -0.6147575 0.93851435 0.20432 -0.06492935 0.12715527 -0.016832732 0.017662667
-0.10392496 0.1454116 0.11504537 -0.094966084 -0.35559997 -0.019610867 0.99644566 0.064180076
1.0291681 0.04639147 0.2773852 0.15089662 0.012988099 1.1143075 0.15084495 0.1703881
0.9177538 0.060164835 -0.32012567 0.7835296 0.13916866 0.24533212 0.9415432 0.04225435
0.15435298 -0.053432547 0.1045662 -0.06469998 0.07753181 0.004480608 -0.08083675 -0.45902085

bias f4 [16]
00000000: b6f8 f23c 8a3b b9bc 41ce b7bc 233f 7bbc
00000010: ea82 cdbd 23fd 84bd fae7 cbbd 5d68 33bd
00000020: 9581 36be a8d2 9ebc cb94 12be ac1c 253e
00000030: 6bbf ac3d 94f4 7b3e da71 9abd 15d5 aabd
0.02965961 -0.022611398 -0.022437217 -0.015334877 -0.100347355 -0.064935945 -0.099563554 -0.0438007
-0.17822869 -0.019387558 -0.14314573 0.16124219 0.084349476 0.24605018 -0.07541247 -0.083414234
